models/wind_power_model1.pth (torch, 816480 bytes, 13 tensors)

lstm.weight_ih_l0 f4 [400, 1]
000000 1b 93 89 3d b4 3f 28 bd 47 70 73 bd 0f 66 61 bd
       0.06717511 -0.041076377 -0.059433248 -0.05502897
000010 f1 80 3a bd af d2 a9 bd d5 bb 94 bd 97 57 ae 3c
       -0.045533124 -0.08292138 -0.072623886 0.021282
000020 5d 68 ae 3c e7 f7 61 bd 77 10 73 3d e7 d2 e5 3b
       0.021289999 -0.05516806 0.059341874 0.007013667
000030 ba ad e4 bc d8 85 84 bd ed 9d 68 3d 60 0e 03 3d
       -0.02791487 -0.06470841 0.056791235 0.03199613
000040 db d7 86 bd c7 c3 b9 3c b8 32 ae 3d ca d3 68 bd
       -0.0658414 0.022676362 0.085057676 -0.056842603
000050 1a b7 34 3d 25 2c c5 3d bd 30 c4 bd 9a 8f 7f bc
       0.04411993 0.096275605 -0.095796086 -0.015598202
000060 7f 45 01 bd 25 2c 88 bd 55 dd 97 3d c7 12 99 3d
       -0.031560417 -0.06649045 0.074152626 0.074742846
000070 2f d3 86 bd af b6 8d 3d 15 ca ac bd f3 d8 19 3c
       -0.06583249 0.0691961 -0.084369816 0.009390104
000080 b3 00 b7 3d 42 ca b0 bd 37 25 34 3d c3 15 bd bd
       0.0893568 -0.086323276 0.043980803 -0.09232666
000090 33 12 5b bb e7 f2 f3 bb dd e7 55 3d 76 3b a5 bc
       -0.0033427596 -0.0074447277 0.052223075 -0.020169955
0000a0 7a b9 5c bd bd 90 78 bd 60 ac a2 bd 92 ec 8d bd
       -0.05388782 -0.06068491 -0.07943034 -0.06929888
0000b0 23 b2 c2 bd fa f9 8d bd 67 91 ae 3c 5b 0c ca 3c
       -0.09506633 -0.06932445 0.021309568 0.024664095
0000c0 a7 3f b9 3d f5 42 ae 3c e0 7c 9a 3d d1 2c 37 bd
       0.09045344 0.021272162 0.07543349 -0.044720475
0000d0 bd e4 2b 3d b7 cd 4e 3d ad af 83 3d e7 00 28 bc
       0.04196619 0.050489154 0.06429992 -0.010254121
0000e0 92 38 89 3d 10 80 5d 3d a7 8b 82 3d 03 96 dd bc
       0.06700243 0.054077208 0.06374293 -0.02704907
0000f0 e3 b2 63 3d 0d 44 97 bd 20 8f 49 3d 1c 40 06 bd
       0.05559052 -0.073860265 0.04920876 -0.032775983
000100 5d 65 6e bd ba 13 c6 39 13 0f 4f 3d 5d 1c 0f 3d
       -0.058202136 0.000377802 0.050551485 0.03493916
000110 38 07 c3 bd ed c0 97 bd bd 9d af bd d1 ae 2f bd
       -0.09522861 -0.074098445 -0.08575008 -0.042891327
000120 4b f4 c5 bd 03 90 a7 3d 33 a3 a9 bc f3 73 c1 3d
       -0.09665736 0.08181765 -0.020707702 0.09445944
000130 03 67 2a bb 6b f3 b3 3d 15 09 b9 3d 33 5e 17 3b
       -0.0026001341 0.08786663 0.090349354 0.0023096919
000140 42 c9 be 3d 9d f4 13 3d 3b 5e 99 3d 5f 4d 80 3d
       0.09315731 0.036121953 0.07488676 0.06264757
000150 ed c1 6b bd e7 eb 56 bd bb a6 92 bd 08 48 96 3d
       -0.05755799 -0.052471068 -0.071607076 0.073379576
000160 48 40 b6 3c 65 22 b9 3d 07 0d 91 3c 6a 37 9a 3d
       0.022247449 0.09039763 0.017706407 0.07530101
000170 a8 af 94 3d 5a 9e 68 bc e0 43 b0 bc 00 b9 a7 3d
       0.07260066 -0.01419791 -0.02151674 0.08189583
000180 d5 f6 99 bc d3 22 9f bd 12 61 af 3c 8e 4e af 3c
       -0.018794456 -0.07770314 0.021408591 0.021399762
000190 a2 75 90 3d d8 1d a8 3d 4d 24 6f bd 8d 6f f6 3c
       0.07053687 0.08208817 -0.05838423 0.030082488
0001a0 80 4b af 3d 35 d7 84 bd 07 0d b2 3d 00 e0 74 bd
       0.08559322 -0.0648636 0.08693891 -0.059783936
0001b0 1f be c1 3d e8 67 a3 bd 34 fd 47 bd ed 25 d9 bc
       0.09460091 -0.07978803 -0.048825458 -0.026507342
0001c0 58 b8 a1 3d 93 bf 1e 3d 13 e2 5d 3d 5d 91 4a bd
       0.07896489 0.03875692 0.05417068 -0.049455035
0001d0 a7 ef 2c bd d3 93 39 3d 6d d2 e7 3c 73 2c 76 3c
       -0.042220738 0.04530699 0.028298581 0.015025246
0001e0 b7 64 4e 3d 43 65 0e 3d e5 1b aa bd 1a 94 f0 bc
       0.050389018 0.03476454 -0.08306102 -0.029367495
0001f0 fd b3 95 3d 93 ad a3 3c 6a 12 07 bd de 71 19 bd
       0.07309721 0.019980228 -0.032976545 -0.037462108
000200 b3 eb c5 3c 30 82 66 3d 7a 9f 57 bd d3 cf 16 3d
       0.024160242 0.0562765 -0.052642323 0.03681929
000210 64 67 a8 3c 9b c3 ab bd 73 1f 24 bd da d9 e4 bc
       0.020557113 -0.08386918 -0.040069055 -0.027935911
000220 9a 5d 49 3b 67 d2 da 3b 43 d3 4f bd c8 7c b2 3d
       0.0030725957 0.006677914 -0.050738584 0.087152064
000230 fd 7b c3 bd d0 04 0c bd b0 c9 0b bd 33 eb 98 3a
       -0.09545133 -0.034184277 -0.03412789 0.0011666775
000240 f2 c5 a5 3d 75 c1 b8 bd 46 2c 21 bd fd 7e 22 3d
       0.08094396 -0.09021274 -0.039348863 0.039671887
000250 47 0e 85 bd da ee 38 3d e7 1a c9 3c f7 53 4c bd
       -0.06496864 0.04514966 0.02454896 -0.049884763
000260 52 da a9 3c 80 29 c5 3c aa 4c 5f bd 67 8d 7c 3c
       0.020733986 0.02406764 -0.054516472 0.015414572
000270 07 7b cc 3d 34 30 a8 3c 63 b7 6e bd cd 08 5a bd
       0.09984403 0.020530798 -0.05828036 -0.05323105
000280 a0 27 9c bd 73 ff 22 3d c1 bd a9 3c 00 1f 71 bd
       -0.07624745 0.039794397 0.020720365 -0.058867455
000290 05 5a c2 3d 8b 70 9f 3d 7b 8d 9e 3a 42 eb b7 3d
       0.09489826 0.07785138 0.0012096608 0.08980419
0002a0 6b 4b aa bd 20 93 5a 3d cd 0c a7 3c 9a ec 16 3b
       -0.08315166 0.053362966 0.020391846 0.002302921
0002b0 c8 f5 af bd 55 16 9f bd 0f 05 ca 3d 80 05 72 bd
       -0.08591801 -0.07767931 0.09864246 -0.059087276
0002c0 75 9e 9b 3d 8b 60 ae 3d 60 8c 3d 3d 85 a5 b7 3d
       0.07598583 0.08514508 0.04627645 0.08967117
0002d0 ab 09 02 3d f2 15 90 3d 10 c7 ca 3d b0 c1 c8 3d
       0.0317475 0.07035436 0.099012494 0.09802568
0002e0 fa b6 c1 bc 3d 4d 90 3d e7 bb 29 bc bb 04 ab 3c
       -0.02364682 0.07045982 -0.010359741 0.02087628
0002f0 52 60 b7 3c 0c 9f 36 bd 80 f5 42 3d b2 d7 96 3d
       0.022384796 -0.044585273 0.04759741 0.07365359
000300 af 34 cc bd 9a 85 0b 3b f3 80 64 3c 23 e8 83 bd
       -0.09970986 0.002128935 0.0139467595 -0.06440761
000310 e7 cf 51 bd 2d d0 16 3d ba 99 d0 3c e5 04 ac 3d
       -0.05122366 0.036819626 0.025463928 0.08399371
000320 16 1e 01 43 3d cd 86 bd 33 1a a9 3b 4d 37 8e bd
       129.11752 -0.06582115 0.005160594 -0.069441415
000330 e0 dd 57 bd dd 1d 2c 3d c2 2b 9e bd 3a 85 02 43
       -0.05270183 0.042020667 -0.0772319 130.52042
000340 c7 05 01 43 b2 3a 90 bd a0 59 a4 bd bf 66 9f bd
       129.02257 -0.07042445 -0.08024907 -0.07783269
000350 93 b1 f1 3c da ec 8a bd 7d f2 00 43 d3 7d fd 42
       0.02950362 -0.06783457 128.94722 126.74575
000360 4d 9b 0c bc 6a cb 00 43 48 d2 00 43 e0 b9 48 bd
       -0.0085819485 128.79459 128.82141 -0.04900539
000370 e2 41 6b ba d5 aa c9 bd f3 7e 92 bd 40 71 25 bd
       -0.0008974356 -0.09847037 -0.0715312 -0.040391207
000380 67 8d 24 3d cd 34 be b9 fd be 6a 3d af d8 42 bc
       0.040173914 -0.00036278964 0.057311047 -0.011892482
000390 e7 c5 1e 3d 18 a6 a3 3d c3 73 ac bd d7 b9 41 bd
       0.038762953 0.07990664 -0.08420517 -0.04729637
0003a0 ca 4b 6f bd 1a 50 26 3d 67 d7 65 bd 2a 43 8f 3d
       -0.058421887 0.040603735 -0.056113627 0.069952324
0003b0 1b a6 bf 3d 40 c2 bc 3c cb 29 58 bc 4d e6 73 3d
       0.09357854 0.023041844 -0.013193558 0.059545804
0003c0 a0 21 b7 3d db fe ca bd 4d 61 4b bc 17 a3 b4 bd
       0.0894196 -0.09911891 -0.012413335 -0.088201694
0003d0 c7 64 46 bd 2a ab 74 bd 41 ac 01 43 a2 22 01 43
       -0.048435953 -0.059733547 129.67287 129.13528
0003e0 dd c1 01 43 c5 3d 3e bc 00 da 96 bd 33 15 7c 3c
       129.75728 -0.011611407 -0.07365799 0.015385914
0003f0 e7 05 01 43 70 f9 3b bd 00 24 ac bd 7a 67 1d bd
       129.02306 -0.04589218 -0.08405304 -0.03842876

lstm.weight_hh_l0 f4 [400, 100]
000000 bf 21 c0 3d 47 aa 5f bd e3 92 61 3d 2a be 49 bd
       0.093814366 -0.05460575 0.055071723 -0.04925362
000010 eb 47 b9 bd 77 2b 16 bd 1a af 88 bb 7a ef 9e 3c
       -0.090469204 -0.036662545 -0.0041712644 0.0194013
000020 87 d3 45 3d 9d 81 b5 3d 33 74 40 bb b3 da b6 bd
       0.04829743 0.088626124 -0.0029366135 -0.08928432
000030 ed bb 22 bd dd f4 6a 3d 60 ed 33 3d a0 2d 97 bc
       -0.03973 0.057362426 0.04392755 -0.018454373
000040 a7 38 3e 3c a0 6a dd bc 03 76 b5 bd b3 3a 9c 3c
       0.011610187 -0.027028382 -0.088603996 0.019070959
000050 53 d1 31 3d d5 71 a3 3d f7 9a ad bd 9a d1 96 3a
       0.043412518 0.07980696 -0.08476823 0.0011506558
000060 00 7e 77 3b 8b a5 b4 3d aa 3a 72 bd 4a be 24 bd
       0.003776431 0.08820637 -0.059137978 -0.040220536
000070 5d 90 a2 bd 60 21 e5 bc ad 5d 55 3d 33 ae bf bd
       -0.07937691 -0.027970016 0.05209129 -0.09359398
000080 c3 a5 46 3d c3 87 b3 3d 9a a6 aa 3d 5a 91 7d bc
       0.048497926 0.08766129 0.08332558 -0.015476549
000090 73 0a 04 3c fa 7f 8b 3c f7 6f 16 bd 7a 1f d8 bc
       0.008059132 0.017028797 -0.03672787 -0.026382197
0000a0 95 0b a5 3d d8 4d 85 3d 1a 9e 06 3d 3b 15 a0 3d
       0.0805885 0.06508988 0.03286562 0.078165494
0000b0 a0 31 a1 bc cd 2a 7a 3b cd 8b fa bc 60 ba 39 bd
       -0.019676983 0.0038172484 -0.03058424 -0.045343757
0000c0 17 02 37 bd 9d 95 41 3d 80 d4 9a 3d 33 e3 f3 3b
       -0.044679727 0.047261823 0.075600624 0.0074428557
0000d0 bd f8 0b 3d c3 95 7b bd 67 d6 b5 39 3a d2 9e bd
       0.034172762 -0.06142212 0.00034682752 -0.07754941
0000e0 02 a1 b5 bd 57 ab a5 bd 7d 68 0d bd ea fa 07 bd
       -0.088686004 -0.08089321 -0.034523476 -0.033198275
0000f0 f8 33 96 bd cd 5b 33 3b 9a 34 13 3c 70 87 42 bd
       -0.07334131 0.002736795 0.008984709 -0.047492445
000100 da a2 62 bd 13 41 d6 bc 10 a0 69 bd c7 10 9f bd
       -0.05533109 -0.026154077 -0.057037413 -0.07766872
000110 20 01 7e 3d a7 22 18 3d fb 2f 93 3d a7 ef 4e 3c
       0.06201279 0.037142422 0.07186886 0.01263038
000120 2a c1 47 3d 2b 87 88 3d 33 d6 2a bc 33 fb 99 3a
       0.0487682 0.06666406 -0.010427046 0.0011747837
000130 22 42 9e 3d 60 7f c2 bc ba 9a aa 3c a0 aa 9f 3c
       0.077274576 -0.023742378 0.020825732 0.01949054
000140 1a 2f 25 bd 13 81 d5 bc f3 71 27 bc 3a b1 59 3d
       -0.040328123 -0.026062524 -0.010220039 0.053147532
000150 20 63 c8 3c 6d d2 98 3c 60 ea c2 3c f5 0c c9 bd
       0.024461329 0.018655026 0.0237934 -0.098169245
000160 ca f4 b6 bd c3 cd 0d bd 47 78 a7 3c 20 84 8e bd
       -0.089334086 -0.034620058 0.020443095 -0.069587946
000170 fd 73 1e 3d 52 62 c5 bd fd f3 24 3d 40 cd c2 bc
       0.038684834 -0.09637894 0.040271748 -0.023779511
000180 c0 78 b5 bd a5 16 ab bd 1d b8 06 3d 90 ee b1 bd
       -0.08860922 -0.083539285 0.032890428 -0.0868808
000190 08 3d 01 3d df cd 9f 3d 37 89 28 3d 30 a5 8d 3d
       0.031552345 0.07802939 0.041146483 0.06916273
0001a0 f7 7b 16 bd cd b3 ba 3c c5 32 ae 3d 6a 2a f0 bc
       -0.036739316 0.022790814 0.08505777 -0.0293171
0001b0 94 d2 8f 3d 3d 5d 94 bd ef 30 aa 3d 1a a5 23 bc
       0.070225865 -0.07244346 0.083101146 -0.009988094
0001c0 13 bf 2e bd 3b 96 b8 bd c5 fa 58 3d e1 19 c2 bd
       -0.04266269 -0.09013029 0.052973527 -0.09477592
0001d0 67 74 6f 3d 4e 7f 86 bc 5f d4 8f 3c 08 8d a0 bd
       0.05846062 -0.016418125 0.017557321 -0.078393996
0001e0 d7 ac 01 3d cf 9b 96 3d 1d 3f 60 3d e3 c2 82 bd
       0.031658974 0.07353937 0.05474769 -0.06384828
0001f0 3a d4 65 3d 4d e0 76 3c 4a 68 9b 3d ff de 84 3d
       0.0561106 0.015068126 0.07588251 0.06487846
000200 9a e7 fa 3b 13 ad 9a bc 67 e5 b8 3d a3 ec aa 3d
       0.0076570036 -0.018881356 0.0902813 0.08345916
000210 46 41 29 3d 45 92 8b 3d 2a 4d 32 bd cd ee f1 bc
       0.041322015 0.06815008 -0.04353062 -0.029532814
000220 e5 71 b6 bd 73 11 9d bd 1a 50 b2 3c 1b df 8f bd
       -0.089084424 -0.07669344 0.021766711 -0.07024976
000230 77 b8 cc 3d 4d 3c 31 bc df c3 81 bd 67 cc 47 bc
       0.099961214 -0.0108175995 -0.063361876 -0.012194729
000240 a5 e9 80 bd a7 11 97 3c 38 7e 55 bd 55 08 a0 bc
       -0.06294564 0.018441034 -0.052122325 -0.019535223
000250 c5 8c 7b bd 2b 5e 31 3c 00 dc 89 3c c3 69 80 3d
       -0.061413545 0.010825674 0.016828537 0.062701724
000260 fd 19 41 3d 69 30 59 3d da 3d 17 3d 00 6b 27 3b
       0.047143925 0.053024683 0.03692422 0.0025545955
000270 69 22 11 bd f2 33 cc bd b1 11 fe bc 4b ac a9 3d
       -0.035433207 -0.09970845 -0.031014295 0.082848154
000280 6f f3 8b bd 8b ce 93 3d 6c e4 a7 3d ed 3d 14 bd
       -0.06833541 0.07217129 0.08197865 -0.03619187
000290 50 37 a2 bd 63 a2 85 bd 0d c6 28 3c a9 ed 5c 3d
       -0.07920706 -0.065251134 0.010301125 0.053937588
0002a0 cd 5e 5a bc 10 a1 29 3d b3 d6 54 3d a5 1d c2 3d
       -0.013328266 0.041413367 0.051962566 0.094783105
0002b0 aa 92 c0 bd a6 47 b1 bd bb cf a7 3d ce 51 94 bd
       -0.09402974 -0.08656244 0.08193918 -0.072421655
0002c0 3a c9 8f bc ad 85 aa bd db 14 9c bb 47 69 51 3d
       -0.017552007 -0.08326278 -0.0047632284 0.05112579
0002d0 a3 53 19 3c a6 a2 ca bd 0b 61 cc 3d 73 84 1d bc
       0.009358319 -0.09894304 0.09979447 -0.009614098
0002e0 9a ce dc 3b 23 35 6a 3d 33 ef 40 ba b1 53 92 3c
       0.006738496 0.05717958 -0.0007359862 0.017862173
0002f0 7b 8c 14 3d 8f 6c 99 bc b0 71 10 bd ea 37 80 3d
       0.036266785 -0.018728523 -0.03526467 0.06260665
000300 19 e9 9b bd a7 46 f0 bc b0 3f 6c 3d 96 90 85 bd
       -0.07612819 -0.029330565 0.057677925 -0.06521718
000310 87 73 f7 3c 30 60 29 bd a0 b4 4d bc 7d 35 ba 3c
       0.030206455 -0.041351497 -0.012555271 0.022730583
000320 9d 56 2f 3d 2d e8 87 3d 3a c2 1c 3d da 75 7a bc
       0.04280721 0.06636081 0.038271166 -0.015286887
000330 ab 0d 93 bd 63 d8 66 bd b0 d7 5b bd 87 7d c0 bd
       -0.07180341 -0.056358706 -0.053672493 -0.093989424
000340 78 cf 85 bd e0 d1 06 3d a5 23 a6 bd 17 40 57 3d
       -0.06533712 0.032914996 -0.081122674 0.052551355
000350 7f c0 95 3d 40 83 67 3d 02 49 9d bd 00 f3 3a 3d
       0.07312106 0.056521654 -0.07679941 0.0456419
000360 73 b7 b9 3d 5a a6 50 bc 2a 4a 4c bd dd 17 07 3d
       0.09068193 -0.012734974 -0.049875416 0.032981742
000370 fa 73 98 bd 60 6c ee 3c 5d 4d 47 3d 35 77 c7 bd
       -0.07443996 0.029104412 0.048657764 -0.09739534
000380 3a a0 13 bd 1a ee 2f 3c cd c0 8e 3c 8d 41 31 3d
       -0.036041476 0.01073792 0.017425919 0.043275405
000390 0d b4 bf bc ad 27 80 3c fa 91 db 3c e0 14 d6 3c
       -0.023401285 0.015643919 0.026803005 0.026133
0003a0 80 f5 eb 3b c0 98 dc bc c0 2e 81 3c 4b 25 bf bd
       0.0072008967 -0.026928306 0.015769362 -0.09333285
0003b0 4b d1 a3 bd a7 8f 79 bd 7a b7 8a 3d b3 53 dc bc
       -0.07998904 -0.060928013 0.067732766 -0.02689538
0003c0 ca 88 60 bd c0 56 15 bc 8a 2a be 3d 80 26 cd 3c
       -0.054817952 -0.009114921 0.092854574 0.025042772
0003d0 dd 6b 84 bd a2 a2 b9 3d 6a 0b 67 3d f2 f5 ac bd
       -0.06465886 0.09064223 0.05640737 -0.08445348
0003e0 e3 aa 09 3d e3 2e c3 bd 9a 7d c7 bd 10 4f 48 3d
       0.033610236 -0.09530427 -0.097407535 0.048903525
0003f0 4d 15 c8 3d 38 38 c5 3d 13 82 d4 3c 9a 20 6c bc
       0.09769688 0.096298635 0.02594093 -0.01441207

lstm.bias_ih_l0 f4 [400]
000000 3a 56 23 3d 65 d5 9e bd 60 0c 23 3d 9a 27 a9 bd
       0.039877154 -0.077555455 0.039806724 -0.082595065
000010 b1 53 22 bd 73 bd b1 bd 6d a5 c2 3d bf de 95 3d
       -0.039630596 -0.08678713 0.09504209 0.07317876
000020 cf 6c 8a 3d f3 94 62 bc 9a 33 7c bd 23 31 95 3d
       0.06759035 -0.013829458 -0.06157265 0.07284763
000030 7d 79 12 3d 3b e8 a5 3d 52 fd af 3d 48 94 b3 3d
       0.03576039 0.08100935 0.08593239 0.08768517
000040 fa cb c4 3d 27 b1 07 bd e0 4c 80 3c 67 ba fc bc
       0.09609218 -0.03312793 0.015661657 -0.030850602
000050 a7 27 58 3d f0 49 15 3d 4a d6 8f bd 4d 47 95 bd
       0.05277219 0.036447465 -0.07023294 -0.0728899
000060 3c 23 c6 3d 7a dd 1f bd 23 76 6c 3d 4d ea b5 3c
       0.09674689 -0.039029576 0.05772985 0.02220645
000070 a7 50 68 bc c3 9a 9c bd 90 48 63 3d cd 3f 10 3b
       -0.014179385 -0.07646706 0.055489123 0.0022010684
000080 e0 95 57 3d f3 d1 8d bd c7 9e 93 3c c7 b9 db 3c
       0.052633166 -0.0692481 0.018020047 0.026821984
000090 80 f4 6a 3c 1a 60 21 3d 38 90 b4 3d e9 51 ac 3d
       0.01434052 0.03939829 0.0881657 0.084140606
0000a0 80 ed 25 bc 37 91 23 bd 20 6e a6 3d ba f8 54 bd
       -0.010127425 -0.03993341 0.081264734 -0.051995017
0000b0 a5 f2 83 3d 67 4a 21 3c 0a 54 ba 3d 1c 26 13 3d
       0.06442765 0.009844399 0.090980604 0.035925016
0000c0 2d bb 96 bd 18 1e 85 3c 4d 4c 00 bd 15 57 74 bc
       -0.0735992 0.016249701 -0.031322766 -0.01491334
0000d0 ef e2 9e 3d fd 5d 3f 3d ed 40 d3 bc 9a e5 e2 bb
       0.07758128 0.046720494 -0.025787795 -0.0069243433
0000e0 b0 c5 49 bd 9a 08 14 bc e7 8a 95 3d cd 85 90 bd
       -0.049260795 -0.009035254 0.07301884 -0.070567705
0000f0 67 55 32 bc 3a 65 70 bd 8d b0 68 3d cf 1d de 3c
       -0.010884619 -0.058690287 0.056808997 0.027113823
000100 98 ce 9f bd 87 10 8a bd 7f 0f bc bd 0f 2b 8d bd
       -0.078030765 -0.067414336 -0.09182643 -0.068929784
000110 33 a4 e6 bc 87 20 cd 3c c3 b0 33 bd 41 66 d2 bc
       -0.028154468 0.025039924 -0.043869745 -0.025683524
000120 da f4 2b 3d e7 c6 14 3d 53 63 fb 3c 30 9e 37 3d
       0.041981556 0.0363225 0.03068701 0.044828594
000130 d3 35 bd 3d 3a 30 8f 3c ed 4b 75 bd 3d 8c 94 bd
       0.09238782 0.01747905 -0.05988686 -0.07253311
000140 5f 7e bb bd 35 6b c0 bd 9f 74 c7 bd 2d d4 0e bd
       -0.09154963 -0.09395448 -0.097390406 -0.034870315
000150 8a e6 51 bd 0d de d3 bc 82 b3 c4 bd e7 97 11 bc
       -0.05124525 -0.025862718 -0.09604551 -0.008886314
000160 e5 82 68 bd 30 4c 08 3d 50 c0 84 3d cb c3 a1 3d
       -0.056765456 0.033275783 0.06481993 0.07898673
000170 60 3a cd 3c fa 51 82 3c 73 e7 52 bd 0a f1 5d bd
       0.02505225 0.01590823 -0.05149026 -0.05418495
000180 d9 25 08 3d 52 a9 8a 3d 94 85 67 bd b3 d3 eb bc
       0.03323922 0.067705765 -0.056523874 -0.02878747
000190 87 5e bb 3d 8d d3 f2 bc 1f 0f 91 bd e7 4d d4 bc
       0.09148889 -0.02964189 -0.07082962 -0.025916053
0001a0 ed b5 48 bd 33 56 e3 3c 33 ba ea bc 6f 45 b7 3d
       -0.049001623 0.027751064 -0.02865324 0.0894879
0001b0 5b 64 ca bd 10 50 95 3d 6d 7d cf bc 67 00 13 bd
       -0.098824225 0.07290661 -0.025328362 -0.035889056
0001c0 67 ba 14 bc b5 de 95 3d 67 fe a7 bd ad 03 fd 3c
       -0.009077645 0.073178686 -0.0820282 0.030885542
0001d0 e0 b9 aa bc ad e1 00 bd 90 20 36 bd 6d ad 85 bc
       -0.020840585 -0.03146522 -0.044464648 -0.016318047
0001e0 f7 5c 10 bd cd 63 5b bb 0a 34 19 3d 00 27 08 3c
       -0.03524491 -0.0033476234 0.037403144 0.00831008
0001f0 73 ec 89 bc 3d 73 27 3d f8 45 ac 3d ee 21 ef bc
       -0.01683638 0.040881384 0.08411783 -0.029190984
000200 0d ed 92 3c 40 83 fc bc c3 29 0c bd b5 58 bd 3d
       0.0179353 -0.030824304 -0.034219515 0.09245435
000210 94 05 cc bb 27 70 91 bc a3 cb ba bd 47 74 93 bc
       -0.006226251 -0.017753674 -0.09120872 -0.017999781
000220 ba e0 38 bd 5d a6 1a bd 80 71 8d 3c f0 9e 27 bd
       -0.04513619 -0.037756313 0.017266035 -0.04092306
000230 a7 89 4f 3d 8d cd 56 bd 9a d1 6a 3c a3 14 ae 3d
       0.050668385 -0.052442122 0.0143321995 0.0850003
000240 23 53 27 bd dd 33 7d 3d 6d 42 1a bd 3a 55 a1 bd
       -0.04085077 0.06181704 -0.037661005 -0.07877584
000250 bd 50 af 3d 82 1f a3 bd b5 90 9b bd d5 17 89 3d
       0.085603215 -0.07964994 -0.0759596 0.06693999
000260 f1 80 30 3d 73 fb 81 bd a2 e9 91 bd 6d 20 58 3d
       0.043091718 -0.06346788 -0.0712464 0.0527653
000270 6a 05 51 bd cd 75 c6 3d 67 24 2d 3b ba 44 e6 bc
       -0.051030554 0.096904375 0.0026419403 -0.028108943
000280 7a 0e 7b bd ba 6f 74 bd c3 74 ee bc 6d f8 82 bd
       -0.061293103 -0.059676863 -0.02910841 -0.0639504
000290 a8 05 9c 3d a7 10 49 bc 72 66 9b 3d 40 03 a8 3c
       0.07618266 -0.012272037 0.07587899 0.020509362
0002a0 58 5f 94 bd 50 ab 75 3d 72 33 b8 bd 57 61 8e bd
       -0.07244748 0.05997783 -0.089941874 -0.0695216
0002b0 e0 85 9b 3d a7 72 cf bc 15 aa ab 3d 00 bd 65 3c
       0.07593894 -0.025323225 0.0838205 0.014022112
0002c0 e0 7c 7b bd 87 e0 50 bd a0 62 94 bd 6b 5a 9f bd
       -0.061398387 -0.050995376 -0.07245374 -0.07780918
0002d0 39 f3 39 bb 50 e3 18 3d 32 26 a3 bd 27 f1 1c 3d
       -0.0028373732 0.037326157 -0.079662696 0.03831592
0002e0 17 d1 6c 3d 4a 8b c4 bd 6f 0c b4 3d ad f8 86 bd
       0.05781659 -0.0959688 0.08791434 -0.065904
0002f0 05 33 a9 bc ed eb 74 bd b8 46 8e 3d e0 39 a6 bc
       -0.02065421 -0.05979531 0.06947082 -0.020291269
000300 2f 69 ca bd a5 f9 a8 bd 2f 52 89 bd 53 1c e0 bc
       -0.098833434 -0.08250741 -0.067051284 -0.027357256
000310 47 c5 4f 3d 05 d2 9d bd cd e2 81 3a 40 5d ef 3c
       0.050725248 -0.07706074 0.0009909511 0.02921927
000320 d3 e7 64 41 73 a3 57 3c 1a ab 66 bc 37 2c 30 bd
       14.306598 0.013161528 -0.01407888 -0.043010917
000330 2a ed a7 3d 63 e6 01 bd 3a 5f 39 bd cb 9c 6f 41
       0.08199532 -0.031713855 -0.04525683 14.97578
000340 d8 4e 6e 41 92 b8 cc bd 23 a9 68 bd c7 d2 98 3c
       14.894249 -0.099961415 -0.056801926 0.018655194
000350 67 1e d8 bb fa c8 5f 3d 82 fe 65 41 01 d7 58 41
       -0.006595421 0.054635026 14.374636 13.552491
000360 63 8a a7 3d ca e9 64 41 3f 24 66 41 60 ce 62 3d
       0.08180692 14.307077 14.383849 0.055372596
000370 b1 6c 98 3d dd 26 3a 3d 92 b0 a4 3d da e6 85 bd
       0.07442606 0.04544722 0.080414906 -0.06538172
000380 c0 e3 87 3c 45 e0 c6 3d e0 96 de bc 28 52 6f 3d
       0.016588092 0.09710745 -0.027171552 0.05842796
000390 67 54 9b bd 33 6d e3 3a 53 86 ae 3c 42 29 c9 bd
       -0.07584458 0.001735127 0.021304285 -0.098223224
0003a0 f5 12 84 bd b3 3a b4 3d c8 67 b6 3d e7 7c ed bc
       -0.06448928 0.088002585 0.089065135 -0.028990222
0003b0 60 0d aa bc ad 4d a7 3d 76 b9 ba 3c 98 22 cd 3c
       -0.02075833 0.08169112 0.022793513 0.02504091
0003c0 ad 32 3f 3d 67 3b b4 bb 53 33 74 bd c8 f7 c5 3d
       0.046679188 -0.0055002454 -0.05961926 0.09666401
0003d0 b3 d5 77 3d ed 1f c2 3d 95 10 65 41 c9 13 68 41
       0.060506534 0.094787456 14.316548 14.50483
0003e0 77 1e 63 41 85 e4 0f bd 0a cc 38 bd a7 5b c5 bd
       14.194938 -0.035130043 -0.04511646 -0.09636622
0003f0 19 d9 65 41 c5 3f 8a 3d 9a 77 0b bb 87 8a e9 3c
       14.365502 0.06750444 -0.0021281005 0.028508438

lstm.bias_hh_l0 f4 [400]
000000 6d 14 56 bd 04 ec 2d 3b 50 e5 63 bd 90 84 2f bd
       -0.052265573 0.0026538381 -0.05563861 -0.04285103
000010 59 78 9f 3c cd 31 79 bc 78 8c c0 bd 50 a7 1e 3d
       0.019466566 -0.015209627 -0.09401792 0.03873378
000020 33 4f 66 3d cf fa 9f 3d 70 ae 83 bd b3 5f ae 3c
       0.056227874 0.0781151 -0.06429756 0.021285867
000030 40 7a 6e bd a5 fe b1 bd 2a af b3 3d 07 5f 6f 3d
       -0.058222055 -0.08691148 0.08773644 0.058440235
000040 67 c9 8d bc e2 e6 b2 3d 00 59 33 3c 80 38 20 3c
       -0.01730795 0.08735444 0.010946512 0.009779096
000050 10 e2 a5 bd 4d 79 c4 bb 9b bb a6 bd b8 dd 94 3d
       -0.080997586 -0.0059959055 -0.08141252 0.07268852
000060 40 2c a0 bc b3 02 2a 3d 87 89 1e bd 6f eb 85 3d
       -0.01955235 0.04150648 -0.038705375 0.06539046
000070 13 a9 0c 3d 3a 15 c8 3d 27 9e 1f 3c 47 8b 96 bc
       0.03434093 0.09769674 0.009742296 -0.01837696
000080 87 5c be bc c0 5b b6 3d 5a 56 5b 3c 00 20 a9 39
       -0.02323748 0.08904219 0.013387287 0.00032258034
000090 2f 6f 8d 3d a7 b5 6f bd a7 63 b3 bd 2a 5a a8 bc
       0.06905972 -0.058522847 -0.087592416 -0.020550806
0000a0 c5 61 8d bd 13 eb b0 3d f3 58 77 3c 2f 31 80 3d
       -0.06903414 0.08638587 0.015096891 0.06259381
0000b0 b0 ce 18 3d 83 34 a9 3d 72 2d a5 3c 94 ef 58 3d
       0.037306488 0.08261969 0.020163272 0.052962855
0000c0 da b4 49 3d c3 70 ee 3d 27 c4 41 3d 05 dd bc bb
       0.04924474 0.11642601 0.047306206 -0.0057636523
0000d0 62 ea 8d bd cd 0e 1f bc 27 51 f5 3c 7a c2 b9 3d
       -0.069294706 -0.009708119 0.029945923 0.090702966
0000e0 27 e5 88 bc 8d 7c 55 3d 28 14 8b 3d 6b 9b 82 bd
       -0.01671083 0.052120734 0.06790954 -0.063773
0000f0 d5 14 c1 3d ed 2f be 3d 28 e9 a4 3d 07 92 87 3d
       0.094278015 0.09286485 0.080522835 0.066196494
000100 b3 45 42 bd 23 b4 2f bd d2 4f 8a bd a2 a8 96 3d
       -0.04742975 -0.0428964 -0.06753506 0.07356383
000110 40 2a 2e 3c da 08 d6 bc 8d 19 12 3d fa 7d 9c bd
       0.01063019 -0.026127268 0.0356689 -0.076412156
000120 27 77 a3 3d d7 40 3c bd b3 06 04 bc 6d 0e 62 3d
       0.07981711 -0.045960274 -0.008058238 0.05518954
000130 9d b6 5d 3d 4a 9c c3 bd c3 72 c0 bd 40 b3 69 3d
       0.05412923 -0.09551294 -0.09396889 0.05705571
000140 2a b0 8f bd c3 0e 03 3d 00 df ac 3b 9a b7 8b 3a
       -0.070160225 0.0319965 0.005275607 0.0010659576
000150 02 2e ae 3d 50 65 23 3d 20 45 0c bd 0d 80 0b 3c
       0.08504869 0.03989154 -0.03424561 0.008514416
000160 9a dc d3 3d c0 7d a8 3c ea a0 b5 3d 6d 1b 80 3d
       0.10344811 0.020567775 0.088685825 0.06255231
000170 03 2a 1b bd 63 80 79 3d 03 23 09 3d 23 8a 31 bd
       -0.037881862 0.060913455 0.033480655 -0.043344628
000180 7a 35 ae 3c 5b ca 8e bd f7 f2 6d 3d a9 1d 8f 3d
       0.021265734 -0.0697219 0.058093037 0.06988079
000190 02 41 a9 bd 67 98 3f bc 27 46 76 bc b7 52 3f 3d
       -0.082643524 -0.01169405 -0.015031374 0.046709742
0001a0 c7 35 97 3d 55 72 c0 bd 73 18 08 3d d3 cc 05 bd
       0.07383304 -0.09396807 0.03322644 -0.03266604
0001b0 cd 6c a6 38 bf 1d b6 bd f3 0b b7 3d 0a f5 23 bd
       7.9357626e-05 -0.08892392 0.08937826 -0.04002861
0001c0 4d e1 5e bd 4d d5 4a bc c5 01 92 3d f7 48 ae bd
       -0.054414082 -0.012379956 0.07129244 -0.08510011
0001d0 33 1f 61 3c b3 dc 45 bd f8 de 98 3d 00 bf 92 bd
       0.013740349 -0.04830618 0.07464403 -0.071653366
0001e0 03 21 c3 3d 9a d6 76 3b 5a b7 53 3d fb 4b ab bd
       0.09527781 0.0037664534 0.05168853 -0.083641015
0001f0 30 d9 92 3d df fe af bd 55 9d a1 bd 8a 91 97 bd
       0.071703315 -0.08593535 -0.07891337 -0.07400806
000200 53 e6 77 3d 00 3e c4 bb 80 d4 5d 3d b3 d4 28 3d
       0.06052239 -0.0059888363 0.054157734 0.04121847
000210 2b 3f 05 bd 93 be 30 3d 80 da 57 3d ba b4 86 bc
       -0.032530945 0.043150496 0.052698612 -0.016443599
000220 f3 5a 10 3c 27 99 0e bd 73 ac a2 3c bf d6 b2 3d
       0.0088107465 -0.034814026 0.01985762 0.08732366
000230 33 b1 ee 3a 67 7d 73 bd 3f 6e a0 3d e2 8b bb 3d
       0.0018210768 -0.059445765 0.07833528 0.0915754
000240 5a 77 c0 3c 4a 07 ac bd 79 b4 97 3d 3a 31 b7 3d
       0.023494411 -0.08399828 0.07407469 0.08944936
000250 7d 55 3c bd 9f 78 bd 3d 17 56 0c bd e7 aa b8 3d
       -0.045979965 0.09251522 -0.03426179 0.09016972
000260 64 a3 79 bd 00 5e 65 3d 0d 3e 81 3c cd a6 14 bd
       -0.060946837 0.05599785 0.015776658 -0.036291886
000270 5a c7 ae 3d bd 94 a0 3d c3 c3 1d 3d c0 c7 c4 3d
       0.08534117 0.078408696 0.03851677 0.09608412
000280 8d 84 0c 3d 73 f3 a1 bd ab e9 4a 3d 67 4b 4b 3d
       0.034306098 -0.079077624 0.04953925 0.049632456
000290 e0 71 7b bd 67 46 92 b9 1a 65 95 3b bd 78 95 bd
       -0.061387897 -0.00027899744 0.0045591714 -0.072984196
0002a0 ea 17 05 3d 6d fd b9 bd cd 8a be 3b 7b 2b b4 bd
       0.03249351 -0.0908154 0.005814886 -0.08797356
0002b0 af 90 b7 bd cd ae 17 bb fd 09 25 bd 80 bd ab bc
       -0.08963143 -0.002314496 -0.04029273 -0.020964384
0002c0 c3 64 2a bd 8d 4e c8 3c 27 7a 38 bd cd 7a 97 bb
       -0.0416 0.024451518 -0.04503837 -0.0046227933
0002d0 c9 9e 72 3d aa e7 10 3d 22 fa 94 3d f3 8f ca bd
       0.05923346 0.035377182 0.072742715 -0.098907374
0002e0 bb 05 c0 bd 27 3b 56 3c 3a 59 8b 3d 0f da c8 bc
       -0.09376093 0.013075626 0.06804128 -0.024518041
0002f0 83 55 14 3d e4 a3 31 bc f3 58 6e 3d 13 ab ec bc
       0.036214363 -0.010842297 0.058190297 -0.028890168
000300 cd 29 a4 3c 7d 5b c3 bd c2 d0 c9 bd 87 80 8b 3d
       0.020039463 -0.095389344 -0.098542705 0.06811624
000310 9a 70 38 3b cd 7b 41 3d 67 60 a8 ba 23 4d 0a bd
       0.0028143288 0.047237206 -0.0012846113 -0.03376497
000320 9d 4b 67 41 6a 59 96 bd 5a b8 31 3c 05 f9 a5 bd
       14.45596 -0.07341273 0.0108471755 -0.08104137
000330 97 e6 8f bd a2 00 96 bd 7a ca d6 3c f3 3f 70 41
       -0.070264034 -0.073243394 0.026219595 15.015613
000340 75 98 6e 41 c7 1d 28 bd df bf 91 3d d3 69 aa bc
       14.912221 -0.041044023 0.07116675 -0.020802414
000350 fd 76 18 bd a7 2c 0a bd 00 73 64 41 5d 6d 59 41
       -0.03722285 -0.03373399 14.278076 13.5892
000360 cd 5b a9 3b d0 33 65 41 92 1d 64 41 0d a2 2d bc
       0.005168414 14.32515 14.257219 -0.010597718
000370 d8 d5 1a bd 40 72 3c 3d 90 b9 27 bd 7d 4b 89 3d
       -0.037801594 0.046007395 -0.04094845 0.06703851
000380 98 54 ba 3d 87 b8 17 bd 37 23 2d bd 2b b2 22 bd
       0.09098166 -0.037041213 -0.04226991 -0.039720695
000390 07 15 85 bd 67 2d 67 bd cd 5d 26 3b ed aa 39 bd
       -0.06498151 -0.056439783 0.00253855 -0.045329023
0003a0 53 6f 3c 3d 50 4f 0e 3d 20 b8 25 bd da e9 03 bd
       0.046004605 0.034743607 -0.0404588 -0.03220544
0003b0 67 45 9d 3c ca 9c 7c 3d d7 fc 72 3d c6 ee 18 3d
       0.019198133 0.061672963 0.059323158 0.037337087
0003c0 9a 33 a6 3b e0 1f a1 bc 12 f6 9f bd e5 96 cb bd
       0.0050720694 -0.01966852 -0.07810606 -0.0994089
0003d0 92 56 82 bd 70 c1 8a 3d 1d 8b 62 41 23 81 65 41
       -0.06364168 0.067751765 14.158963 14.3440275
0003e0 2d 4d 65 41 bb 72 44 bc 13 0a 88 3d 4a 3a 6e 3d
       14.331342 -0.0119902445 0.066425465 0.058161058
0003f0 2f e6 64 41 1a 95 86 3b 97 7e 65 3d 33 ae 73 3b
       14.306197 0.0041071298 0.05602893 0.0037182688

lstm.weight_ih_l1 f4 [400, 100]
000000 81 b7 a1 3e 1a fe 4f 3d d3 a8 dd 3c 03 a4 a9 bd
       0.31585315 0.05077944 0.02705804 -0.08283236
000010 3a 2f 64 bd 1a c0 a5 bd 3f fb bd bd d1 98 45 3f
       -0.0557091 -0.08093281 -0.09276437 0.77186304
000020 b6 76 7b 3f 1a d6 5d 3c d6 44 e3 be a7 aa cd 3c
       0.98228014 0.013539815 -0.44388455 0.025105787
000030 d7 70 9e 3d aa 64 45 3d e4 40 d8 3e ed 5a b4 3e
       0.07736366 0.048191704 0.42237008 0.3522562
000040 0b e6 c2 3d c1 c4 93 3e 52 05 d5 3e 00 c2 74 3c
       0.095165335 0.2886105 0.41605622 0.014938831
000050 f3 ff 97 3d 8d dd 37 3c d0 7a c2 3d 70 36 61 bd
       0.07421865 0.011222255 0.09496081 -0.054983556
000060 b3 f6 35 bc 7a 5f af bc 5a 21 4e 3d 72 bd b4 be
       -0.011106181 -0.021407831 0.050324775 -0.35300785
000070 27 81 12 3c cd 09 aa 3d cd 96 20 bb 3d 5b 44 bd
       0.008941925 0.083026506 -0.0024503947 -0.047938574
000080 4d 31 bb be 78 8d 89 bd fd 55 b4 3d 87 bd 72 bd
       -0.3656105 -0.06716436 0.088054635 -0.05926278
000090 fa 1d 15 bd 0d 27 8c 3d 1f 71 c7 c0 3f 0d 55 3d
       -0.03640554 0.06843386 -6.2325587 0.052014586
0000a0 1b aa 88 bd 5a 02 4b bc 83 57 91 3d 13 50 e1 bc
       -0.0667307 -0.012390697 0.0709677 -0.027504003
0000b0 e7 db 64 3d e3 63 86 bd 11 e7 aa 3e 68 2f a2 3e
       0.055873778 -0.06562021 0.33379415 0.31676793
0000c0 37 12 c3 3e 0b 89 5a bf dd 49 27 3d 2d 60 9c 3c
       0.38099834 -0.8536536 0.040841926 0.019088829
0000d0 03 f6 c9 3e 24 8f 83 be 9a 40 47 3c 5f e2 b0 bd
       0.39445505 -0.25695145 0.012161398 -0.08636927
0000e0 42 ee d3 3e d7 a2 e0 3e 9e 29 cc 3e 6d a2 90 bd
       0.41392714 0.43874237 0.398755 -0.0706223
0000f0 c0 97 9e 3c 9a 5e db bc 44 98 ef be 1a 1a 11 bc
       0.01935947 -0.026778508 -0.46795857 -0.008856321
000100 45 71 8e 3d bb eb 0a 3c 64 71 07 3d 59 22 8d 3f
       0.06955198 0.008479054 0.033067122 1.1026107
000110 d5 1a 89 3d cd 68 13 bd dd d4 56 bd 63 92 33 3d
       0.06694571 -0.035988618 -0.052449096 0.043840777
000120 00 15 20 3c c1 45 e5 be cd b2 1d 3d 1a e1 e9 be
       0.009770632 -0.4477978 0.038500596 -0.4567955
000130 67 67 83 bb 2f 51 95 3e 06 12 b6 3e 80 90 36 bc
       -0.0040101293 0.291635 0.35560626 -0.01114285
000140 8e d2 d1 3e 06 ba bb be 0d 92 cb bc f3 0d bf be
       0.40980953 -0.36665362 -0.024849916 -0.3731533
000150 cf 0c ae 3d 7a b6 89 bc 8d f1 3b 3d cb 50 bd be
       0.08498537 -0.016810644 0.045884658 -0.36975703
000160 54 5b c9 3e a2 3c ed be da 05 5e bd a3 90 11 3d
       0.3932749 -0.46335322 -0.0542048 0.035538327
000170 67 a7 99 be 2d 94 43 bd a5 ce bb bd 02 84 c8 3e
       -0.3001053 -0.047748733 -0.09170274 0.39163214
000180 a4 1b 9e 3d 80 b9 d9 bc 9b 86 0d 3f 14 b8 0e 3f
       0.07720116 -0.026577711 0.55283517 0.5574963
000190 e3 65 b2 3e 30 f0 23 bd 95 ec 8c 3d 73 f2 9e bc
       0.34843358 -0.040023983 0.06881062 -0.019402718
0001a0 4b e9 86 3d fa 78 78 bd 3a 1e 0d bd d1 94 45 3f
       0.06587466 -0.060662247 -0.034452654 0.771802
0001b0 a9 89 45 3f 9b 83 92 bd 08 7b a6 be 5d cc 89 bd
       0.7716318 -0.07154008 -0.3251574 -0.06728432
0001c0 13 5f a5 bc 23 48 b7 3d 4a cd 89 3e d1 7a 88 3e
       -0.020186936 0.08949306 0.26914436 0.266562
0001d0 1a fb 2d 3c 4d 10 84 3e 84 63 98 3e 8d ac 95 bc
       0.010618949 0.25793687 0.29763424 -0.018270755
0001e0 b9 16 17 3d e3 72 14 bd 4f d3 bd 3d da f2 81 bc
       0.036886904 -0.036242377 0.092688195 -0.015862871
0001f0 72 2e c4 3d 80 ee 44 3c 4b 78 ef 3c 8c 41 e7 be
       0.09579171 0.012019753 0.029232165 -0.45167196
000200 6a c3 99 3d c0 c2 bb bd 0b b7 b2 3d 27 72 18 bc
       0.075079754 -0.09168005 0.08726319 -0.00930456
000210 6f 24 ea be 67 ff 07 bc 5a 5a 5f 3d fa 17 bf 3d
       -0.45730922 -0.008300639 0.054529525 0.09330745
000220 a7 79 31 3d a0 26 b2 3d 5b 52 bc c0 d1 9c d7 bd
       0.043328907 0.086987734 -5.885053 -0.10527957
000230 c0 9d c8 bc ed 96 f3 bc f3 8e b9 bd 4d da 08 bd
       -0.024489284 -0.029735053 -0.090604685 -0.033411313
000240 f8 5b a9 3d 4a e6 4c 3d c2 d4 9b 3e c5 ff 81 3e
       0.08269495 0.05002431 0.3043576 0.2539045
000250 8b ea 9d 3e fc 32 60 bf f3 66 d0 3c 50 cd a1 bd
       0.30843005 -0.87577796 0.025439715 -0.079004884
000260 ac 62 b2 3e 81 7b 97 be 4d be b2 3b b8 bd 8a bd
       0.34840906 -0.29586414 0.0054548145 -0.06774467
000270 69 8e b5 3e ca a4 de 3e 40 28 c5 3e 6f d6 27 3d
       0.35460213 0.434851 0.3850727 0.040975984
000280 c0 82 ad 3c 20 87 fd 3c ef 96 c3 be c0 db 2c 3c
       0.02118051 0.030948222 -0.3820109 0.010550439
000290 43 97 c6 3d ad 5f 8c 3d b9 52 bd 3d 98 2a 4b 3f
       0.0969682 0.06854186 0.09244294 0.7936187
0002a0 45 fa 84 3d f7 ac 46 bd d3 42 c1 bd ed 8f 3b 3d
       0.064930476 -0.048504796 -0.09436574 0.045791555
0002b0 35 f5 aa bd 54 59 e4 be 9a 44 27 3c 7c 43 cf be
       -0.08347551 -0.44599402 0.010209227 -0.40481174
0002c0 d0 81 1c 3d 66 55 bb 3e 50 56 b6 3e 80 fe 63 3c
       0.038209736 0.3658859 0.35612726 0.013915658
0002d0 d2 90 b2 3e ab 24 b9 be 4e 25 8e 3c e3 9c bf be
       0.34876114 -0.36160788 0.017351773 -0.37424383
0002e0 67 cd 62 3c ad 9d 99 3c 00 21 a9 bb e9 3e df be
       0.013842917 0.018751943 -0.0051614046 -0.43602684
0002f0 6b 6a c5 3e 07 1e 99 be 67 e9 11 bc 52 c7 91 bd
       0.38557753 -0.29905722 -0.008905745 -0.071180955
000300 d4 c0 c4 be 87 a0 97 bd f5 1a 8a 3d ee 13 bb 3e
       -0.38428366 -0.07403665 0.06743423 0.36538643
000310 bb ab aa 3d 93 d5 9a bd 49 7e 3a 3f f8 e2 44 3f
       0.08333536 -0.07560267 0.72848946 0.76908827
000320 53 1c 3b 3e 00 08 2e 3c 60 b5 d1 3c 70 33 70 3d
       0.18272524 0.010622025 0.025599182 0.058642805
000330 a3 ed 67 3d 40 e0 bd bd aa 78 c9 3d f4 2c df 3f
       0.056623112 -0.09271288 0.09837468 1.7435594
000340 bb 8a f6 3f 1a 70 c3 bd c1 51 0c be 6a b5 93 3d
       1.9261087 -0.09542866 -0.13703062 0.07212336
000350 90 6d 80 3d c8 d3 98 3d 44 c7 00 3e b6 e4 29 3e
       0.062708974 0.07462269 0.12576014 0.16591153
000360 ba 4f 65 bd ae 6b 9b 3d e8 38 28 3e 4b a1 b0 bd
       -0.055984236 0.07588898 0.16427958 -0.08624514
000370 95 bb 95 39 75 20 90 bd 5a 60 49 3d cf 9b ca bd
       0.00028559254 -0.07037441 0.049164154 -0.098929994
000380 9d 61 b6 3d 7a ee bd bc 46 26 0e bd 9d 5e 69 be
       0.08905337 -0.023185004 -0.03470447 -0.22789998
000390 47 1c a3 bd 40 3d 52 bd 48 be be 3d 1a a6 dc 3b
       -0.07964378 -0.051327944 0.09313637 0.006733668
0003a0 e9 0f 11 be 22 69 96 bd 93 e2 8a 3c cd 3f 29 bb
       -0.14166225 -0.07344271 0.016953742 -0.0025825382
0003b0 6a 3c 52 bd 77 b7 06 3d ea cc cc c0 92 67 a5 bd
       -0.051327147 0.03288981 -6.400014 -0.08076395
0003c0 fd fd 8b bd 9a 44 7a bc 6b e7 c7 bd f0 ef 7a 3d
       -0.06835554 -0.015275145 -0.09760936 0.06126398
0003d0 ad 26 c0 bc 53 68 92 bd 26 bb 1f 3e 6f 34 86 3e
       -0.023455942 -0.071488045 0.15598735 0.2621188
0003e0 2a 4b 8d 3e c6 18 e7 bf 4a e0 b5 3d 1a 74 20 3c
       0.27596408 -1.8054435 0.0888067 0.009793306
0003f0 8f 2b 37 3e aa 94 1d be 63 53 a7 3d 7a 7c b3 bc
       0.1788771 -0.15388742 0.08170202 -0.021909941

lstm.weight_hh_l1 f4 [400, 100]
000000 bd 6b ec 3d 5f 2c 97 3d a5 c4 a8 bd 07 17 74 3d
       0.11543987 0.0738151 -0.08240632 0.059592273
000010 60 91 f6 bc 1f f6 b4 3d dd 49 82 bd 45 76 eb 3d
       -0.030098617 0.088360064 -0.063617446 0.114971675
000020 f4 44 bc 3a c4 d1 0f 3d eb be b1 3d 2a 88 06 bd
       0.0014363811 0.035112157 0.08678993 -0.0328447
000030 74 b8 ed 3c ff 69 56 bd 88 a3 61 bd f3 3a 8d 3c
       0.029018618 -0.05234718 -0.055087596 0.017240023
000040 60 b7 e9 3d 87 b5 20 3d 0c ec a6 3d 75 01 63 bd
       0.11411929 0.039235618 0.08150491 -0.05542131
000050 ab e9 25 3d e3 ee 8e bc ff 8a 03 bd 96 5c 86 bd
       0.040506046 -0.017447894 -0.03211498 -0.06560628
000060 7b 4d 44 bd cd e0 b9 3c 1d 78 85 bd 26 10 9c bd
       -0.047925454 0.022690201 -0.065170504 -0.076202676
000070 21 fc 19 3c 20 96 9b 3d 84 57 fa bc 3f a8 e9 bd
       0.009398491 0.075969934 -0.030559309 -0.114090435
000080 58 fd ee bd 3d f2 2d bd 2c 72 35 3d 36 48 9a bd
       -0.11669415 -0.042467345 0.044298336 -0.075333044
000090 b2 ed 0e be 44 7f cf 3c 87 fb 38 3c c7 c0 1a bc
       -0.13957861 0.02532924 0.011290438 -0.009445376
0000a0 aa 28 af 3d d1 92 85 3d b1 08 9b 3d 3a bb d8 39
       0.08552678 0.06522144 0.07570017 0.00041338225
0000b0 44 20 10 bd b8 5a 1d 3c 5d da 9c bc 4a 31 80 bd
       -0.03518702 0.009604149 -0.019147092 -0.06259401
0000c0 1b 20 6d bd b4 8a f5 3d 55 8b 51 bd 19 40 5a bd
       -0.057891946 0.11989346 -0.051158268 -0.053283785
0000d0 0d eb b7 3c ba 34 0e be 45 41 11 3d 6c 9b 4a 3d
       0.022450948 -0.13887301 0.035462637 0.049464628
0000e0 a2 ae 76 3c ca 0b 6c 3d 8e a6 82 bd 50 24 ee 3d
       0.015056284 0.05762843 -0.06379424 0.1162802
0000f0 29 74 25 3c 92 f6 9d 3c 07 22 09 be 36 9d 95 3c
       0.0100984955 0.019282613 -0.13391887 0.01826344
000100 0f ce 08 3d 44 0b e5 3d d1 58 0d bd 0b f4 ed bc
       0.033399638 0.11183789 -0.03450853 -0.029047033
000110 c9 38 e0 3d f5 17 25 bc 12 b6 ef bc c7 79 4a ba
       0.10948331 -0.010076513 -0.029261623 -0.0007723835
000120 40 46 18 3d b9 19 1e 3d 8d 5c 4c 3c 84 4d 16 bd
       0.03717637 0.03859875 0.012473238 -0.03669502
000130 0e c1 32 bd 75 05 a0 bc 5a 5e 09 3e af dd eb 3d
       -0.043641143 -0.019533852 0.13414899 0.11516892
000140 ca c7 04 3e 08 b5 af 3c ae dd d7 3c 9a e2 e6 3c
       0.12966838 0.021448627 0.026350822 0.028184224
000150 35 20 0d bd 28 fb 7a bd e5 e3 b1 3d 51 c8 eb bd
       -0.034454543 -0.061274678 0.086860456 -0.11512817
000160 d6 fa 0d 3e 4f 59 93 bc 59 5f 5b bd 00 38 5d 3d
       0.13865218 -0.017986922 -0.053557727 0.054008484
000170 df 61 01 be 64 98 2a 3d fd a2 95 bd ea fc c9 bd
       -0.12634991 0.041649237 -0.07306478 -0.09862693
000180 08 14 f4 3c 4f 87 21 3d d6 2b 69 3c 68 d2 02 bd
       0.029794708 0.03943568 0.014231643 -0.03193894
000190 c2 b3 b7 3a 84 5b ac 3b 0b 79 be 3c 64 b8 89 bd
       0.0014015364 0.005259933 0.023251077 -0.06724623
0001a0 93 f9 32 3d 14 b9 a1 3d 51 01 68 bd 57 d9 83 bc
       0.043695044 0.07896629 -0.05664188 -0.016094847
0001b0 66 83 bc bd 67 31 ef bc f3 82 ed 3c 66 54 9b bd
       -0.0920475 -0.029198362 0.028993106 -0.07584457
0001c0 8e 78 b9 bd d2 5a 69 3d 0e 28 02 bd bd b0 e5 3d
       -0.09056197 0.05697138 -0.03177648 0.11215351
0001d0 d8 89 bf 3b 16 b8 40 3d 71 b4 3d 3d db da 80 bd
       0.0058452897 0.047050558 0.04631466 -0.06291743
0001e0 c4 a4 93 3d 24 35 3d 3d 61 d4 14 3d bd 7e 99 bd
       0.07209161 0.046193257 0.036335353 -0.074948765
0001f0 3c 64 d0 3d e8 20 29 bc 21 bf b0 bd f7 c5 a9 bc
       0.10175368 -0.010322787 -0.08630205 -0.02072428
000200 98 44 f5 3d 86 8c 49 bd 33 62 b2 3d 3c 56 c8 bd
       0.11975974 -0.04920628 0.08710136 -0.09782073
000210 0c 47 e5 3b 22 f1 14 bd 52 5b c3 3d e3 e1 d0 3c
       0.006996995 -0.036362775 0.09538902 0.025498336
000220 83 30 a7 3d 13 58 60 3b ed c6 7f bc c6 5d 36 3c
       0.0816355 0.0034232184 -0.015611392 0.011130756
000230 82 2a 44 bd be a4 76 3d f4 03 a9 bd 39 0c 86 bd
       -0.0478921 0.060215704 -0.08252707 -0.065453
000240 c6 11 0a be 16 68 aa bb 85 73 c5 bc de aa 39 bd
       -0.13483343 -0.0052003963 -0.024102936 -0.045328967
000250 fc 5b ab bd 32 a9 3a bd d8 b9 c3 bd 3d e7 9c 3c
       -0.08367154 -0.045571513 -0.09556931 0.019153232
000260 db 89 ac bb 85 a0 84 3d db 3a 20 3d da 3a ab 3d
       -0.005265457 0.06475929 0.03911863 0.083608344
000270 3e cc 17 bc 19 bf 73 bd 4d a6 16 3d a3 29 9a bd
       -0.009265004 -0.059508417 0.03677969 -0.07527473
000280 76 7b 76 bc cd c2 6e 3d 1c 59 dc 3d e3 58 e5 3b
       -0.015044084 0.058291245 0.10759184 0.0069991215
000290 48 af a2 bd 62 21 6d bd 35 2e 89 bd ef ad 02 3d
       -0.079435885 -0.057893164 -0.066982664 0.031904157
0002a0 92 85 79 bd c2 cb 4c bd 89 b8 9a bd 5e fc 87 bd
       -0.0609184 -0.049999006 -0.075547285 -0.06639932
0002b0 ac 26 0c bc 74 1a 46 3d ad 31 36 3c e5 c7 69 bd
       -0.008554142 0.04836507 0.011120242 -0.0570754
0002c0 9c 3b 03 3d c3 8c c4 39 de de af bc 5b 40 49 be
       0.03203927 0.0003748891 -0.021468576 -0.19653456
0002d0 34 b7 cd bd ed e5 aa 3d 1b 62 27 bd df 99 85 bd
       -0.10044709 0.08344636 -0.040865045 -0.06523489
0002e0 01 6c 73 bd fb 5a cd 3c 7b 08 c7 3c c8 d3 8b 3d
       -0.059429172 0.025067797 0.024296036 0.068275034
0002f0 19 49 92 bd 06 d1 b3 bd f3 df 88 3d d4 2d 10 3d
       -0.071428485 -0.087801024 0.0668334 0.035199955
000300 20 75 18 3d d7 8e 60 bd 1b 01 bf 3d f9 7e 48 bd
       0.037221074 -0.054823723 0.09326383 -0.048949216
000310 0a 78 d9 bd 80 8f 7f bd e9 de 3f 3d 39 fa 85 bd
       -0.10618599 -0.06239271 0.046843443 -0.06541867
000320 ff 46 90 bd d2 ce 2f 3d 01 07 94 3a 15 ee 40 3d
       -0.070447914 0.04292185 0.0011293591 0.047102053
000330 78 0d 8d 3d 26 a1 b9 3d 9d 05 55 3c 60 91 9a bc
       0.068873346 0.0906394 0.013001827 -0.018868148
000340 df bf e4 3a bc a9 07 3d 01 90 25 3d af 19 53 3c
       0.0017452202 0.033120856 0.040420536 0.012884541
000350 6b 99 50 bd 62 8b 06 bd b5 b6 02 be eb 66 80 bd
       -0.05092756 -0.03284777 -0.1276501 -0.0626963
000360 31 96 b6 3d e4 99 18 3d e2 29 d4 3d 28 e6 78 bd
       0.089153655 0.037256137 0.10359551 -0.06076637
000370 6b ac b0 3d 48 1f 0d 3d ae 68 a3 bd 21 2d 47 bd
       0.08626636 0.03445366 -0.079789504 -0.048627023
000380 d3 ee 53 3d 91 cd 69 3d e5 04 9f bc 90 4c d4 ba
       0.051741432 0.05708081 -0.019411514 -0.0016197134
000390 f7 4f 31 3d 4b 9d fd 3d d1 4b 16 bd f2 43 3d 3c
       0.04328915 0.12383517 -0.036693398 0.011551844
0003a0 b1 f0 c3 bc 8b f3 f3 bc 57 94 53 3d f5 3e 3f 3d
       -0.023918482 -0.029779216 0.05165514 0.0466909
0003b0 a3 36 3b 3d 83 64 e6 3c 15 be 60 3c f1 81 8f 3d
       0.045706403 0.0281241 0.013717194 0.07007206
0003c0 0d 46 d2 bb 49 20 57 3d 21 92 63 bd 74 b1 fa 3d
       -0.006417042 0.052521024 -0.05555928 0.12240878
0003d0 2c c1 d7 bd 73 ad 2d bd b5 77 fa bd 65 18 92 3d
       -0.105348915 -0.042401742 -0.122298636 0.07133559
0003e0 90 79 a0 3c 16 2b 09 3d 75 92 8d bd 72 01 b3 3c
       0.019589216 0.033488356 -0.069127 0.021851275
0003f0 37 25 e0 3c 3b 42 a2 bc ca 45 74 bd 14 73 32 3d
       0.027361495 -0.019806972 -0.05963687 0.04356678

lstm.bias_ih_l1 f4 [400]
000000 0e 79 cf 3e 1d 22 c1 3e 0e a6 8b 3e 64 a4 2d 3e
       0.40522045 0.3772134 0.27275127 0.16957241
000010 69 12 f8 3e 39 8f 7f 3e 22 c8 43 3e fc 69 fd 3e
       0.48451546 0.24956979 0.19119313 0.49494922
000020 9a 6d f4 3e fb bc 9a 3e a1 2b af 3e f2 25 ce 3e
       0.4773987 0.30222306 0.34212974 0.40263325
000030 c5 dd 93 3e 98 f4 bb 3e 7e d2 c3 3e d1 cb 03 3f
       0.28880134 0.36710048 0.3824653 0.51482874
000040 4d 55 44 3e 32 e1 df 3e f2 e0 e0 3e cd a4 48 3e
       0.19173165 0.43726498 0.4392162 0.19594117
000050 47 04 d6 3e ae 17 3c 3e fb 2e c2 3e ff df 8f 3e
       0.41800138 0.18368408 0.37926468 0.28100583
000060 80 57 a8 3e 63 e4 ad 3e 29 6b 89 3e a2 7a d7 3e
       0.32879257 0.33963308 0.2683957 0.4208575
000070 db 42 81 3e 7e 35 49 3e 93 32 54 3e 23 de bc 3e
       0.2524632 0.19649312 0.20722418 0.36888227
000080 fe bb bc 3e 72 a0 97 3e d1 2d 96 3e 78 b8 da 3e
       0.36862177 0.29614598 0.2933183 0.42718863
000090 16 dc f1 3e ee 94 a2 3e 1c 8a 08 3f 7b 2c de 3e
       0.47238225 0.3175425 0.5333574 0.4339331
0000a0 7d 06 a6 3e 85 4e 76 3e 62 13 a1 3e c2 5a bc 3e
       0.32426825 0.2405339 0.314601 0.36787993
0000b0 9c af e7 3e 5c 43 53 3e 0e a6 b7 3e d9 c0 fd 3e
       0.45251167 0.20631164 0.35868877 0.49561194
0000c0 79 a1 8b 3e 51 93 06 3f 9a 15 59 3e 36 c2 f7 3e
       0.2727163 0.52568537 0.21199647 0.4839036
0000d0 39 b8 ca 3e 8b 97 d5 3e a0 f2 bc 3e ce 28 a1 3e
       0.39593676 0.4171718 0.36903858 0.31476444
0000e0 24 59 e9 3e b3 ee ea 3e f3 fd 9f 3e 2f bf a7 3e
       0.4557582 0.45885238 0.31248435 0.3276305
0000f0 3e 99 e7 3e 52 ee 88 3e 91 32 ec 3e 44 2a c8 3e
       0.45234102 0.26744324 0.4613233 0.39094746
000100 8c 7e ea 3e 31 e5 a4 3e 84 e0 b8 3e 68 f1 df 3e
       0.45799673 0.3220611 0.36108792 0.43738866
000110 d3 4a a3 3e 75 ab a8 3e ef 7b 83 3e af 71 ba 3e
       0.31893024 0.3294331 0.2568049 0.3641486
000120 0d 5d bb 3e 88 5c 00 3f d0 99 93 3e f0 87 eb 3e
       0.3659443 0.5014119 0.28828287 0.4600215
000130 2a 88 a2 3e 6d 1e d7 3e 41 16 c0 3e 42 a5 be 3e
       0.3174451 0.420154 0.37516978 0.37235457
000140 2f 61 ea 3e cc 38 93 3e 78 d3 92 3e 92 23 a6 3e
       0.4577727 0.2875427 0.28676963 0.32449013
000150 69 89 bb 3e b5 7d 68 3e 98 f8 b6 3e 05 56 ab 3e
       0.36628273 0.22704203 0.35736537 0.33464065
000160 11 58 d0 3e 3f 04 aa 3e c3 43 9a 3e 45 73 bb 3e
       0.4069219 0.33206365 0.30129823 0.3661138
000170 fa 61 f6 3e ec 77 11 3e 27 b3 2b 3e c0 fe f2 3e
       0.48121625 0.14205903 0.1676756 0.47459984
000180 7a 86 5f 3e 2f 49 c3 3e 4e 38 e8 3e be 11 e8 3e
       0.21828642 0.38141772 0.45355457 0.45326036
000190 5a f0 87 bc 25 a1 63 bc 14 1b 13 3d 87 73 8b 3d
       -0.0165941 -0.0138934 0.035914496 0.068091445
0001a0 b8 9d 94 bc b1 1c b8 bc d6 e7 fb 3d 86 99 2d 3d
       -0.018141612 -0.022474619 0.123000786 0.04238274
0001b0 f8 bd 1b 3e e8 51 91 bb 48 45 04 bc e1 2d 1c 3d
       0.15209186 -0.004434813 -0.008073159 0.03812969
0001c0 03 2f 73 bd 46 f4 80 3d 7b ea 77 3d ce 92 82 3d
       -0.059371006 0.062965915 0.060526352 0.06375657
0001d0 cf c3 fe bc 1c cc 58 3d ce 91 e3 3c 10 49 52 bd
       -0.031099228 0.05292903 0.027779486 -0.05133921
0001e0 e5 35 c6 3d f2 4a 91 3d a9 e3 9a 3c 12 f6 27 bd
       0.09678248 0.07094373 0.018907385 -0.041006155
0001f0 23 42 a5 3c 80 3a 0b 3d c9 b5 dd 3d ce 4e bf 3d
       0.020173138 0.033991337 0.108256884 0.09341203
000200 cc e2 52 bc 17 40 e8 3d 39 80 28 bd 44 10 47 3d
       -0.012871455 0.11340349 -0.041137908 0.048599496
000210 48 19 8d 3d b8 53 bf 3d 94 c0 4a bd 43 a7 e9 3d
       0.06889588 0.0934214 -0.049500063 0.11408856
000220 b3 dd b8 3d e4 a0 9d bd 33 6f af 3d 5c 79 c3 3d
       0.09026661 -0.07696703 0.085661314 0.09544632
000230 75 69 f4 3d e2 a0 1d bd 13 3d 72 bc b7 ee 8a 3d
       0.11934177 -0.038483508 -0.014785069 0.067838125
000240 49 40 76 3d 16 b3 09 3e 74 b7 76 3d c0 1a 17 3e
       0.0601199 0.13447222 0.06023355 0.14756298
000250 51 5c ac 3d 8a d0 93 3d 26 5a 73 3c e3 24 26 3e
       0.084160455 0.0721751 0.014853036 0.16225009
000260 a0 6d 5e bd 62 a5 4f 3d 7c e5 9b bc 58 96 83 bc
       -0.054303765 0.05069483 -0.019030325 -0.0160629
000270 60 ea 3e 3d 4e 7c 21 3e d3 8b c6 3c 3e c3 c6 3d
       0.046610236 0.15770075 0.024236595 0.09705208
000280 60 d1 99 3c c4 a5 a1 3d e7 77 d1 3c 4f 42 5d 3d
       0.018776596 0.078929454 0.02556987 0.054018315
000290 bd 70 f3 3d 8e 5a 03 3d b7 07 b9 bb b0 5f cc 3d
       0.118867375 0.03206878 -0.0056466716 0.099791884
0002a0 64 a1 a0 3c 07 46 b2 3c 20 8e d7 bc 9d c4 60 3d
       0.019608207 0.021761907 -0.026312888 0.054875005
0002b0 ed 61 ef bc 76 4d 86 3c 1e 02 e2 3d fa a9 ab 3d
       -0.0292215 0.016394358 0.1103556 0.0838203
0002c0 28 45 06 3e e4 1f 00 3e 82 4b ce 3d d1 4c 24 3e
       0.13112319 0.12512165 0.10072996 0.16044928
0002d0 94 2b 0c 3e 83 9f 98 bc 58 76 44 3d 50 e9 ff 3d
       0.13688499 -0.018630749 0.047964424 0.12495673
0002e0 dd 6e d9 3d 7b 80 f6 3d 9c 6f 7b 3d 76 2e 14 3d
       0.106168486 0.120362245 0.061385736 0.03617712
0002f0 17 58 61 3d ec c7 e5 3d c7 42 26 3c 6b 39 87 3c
       0.05501565 0.11219773 0.010147757 0.016506871
000300 5f 61 2c 3d 7f 1f f7 3d 12 bb 3a bc 2f 5d bd 3d
       0.042085048 0.12066554 -0.01139714 0.09246289
000310 68 c4 cb bc 2b e8 a9 3d bf 21 41 3d 49 7b f4 3d
       -0.024873927 0.08296236 0.047151323 0.11937577
000320 cf b4 07 43 c1 2a ef 42 ac f0 16 be cd 6d e2 bd
       135.70628 119.5835 -0.14740247 -0.11056099
000330 82 3d 19 be 79 11 a2 42 86 b8 43 bd a2 e6 f0 42
       -0.1496487 81.03413 -0.047783397 120.450455
000340 54 b3 80 41 f0 83 90 bd f7 37 4e be 09 09 6e 41
       16.087563 -0.07056415 -0.20138536 14.877206
000350 8a 1d 1d 3e 1b 3e 5f 42 30 6d 05 43 48 f6 02 c0
       0.153433 55.81065 133.42651 -2.0462818
000360 5b 28 84 41 5c 04 03 c0 db d3 05 c0 71 e9 fd 3b
       16.519705 -2.047141 -2.0910556 0.0077487756
000370 6f 9a 01 c0 c3 e3 74 bd dd 82 0d be a4 de f1 bf
       -2.0250509 -0.059787523 -0.13819452 -1.889607
000380 4e 72 da 42 b4 8a 24 be 47 47 25 3a f1 a0 11 be
       109.22325 -0.16068536 0.00063048716 -0.1422155
000390 6a 8b 6a 42 89 57 f4 3c 50 28 88 42 ea 3a 0c be
       58.636147 0.029826896 68.078735 -0.13694349
0003a0 5c 65 08 be 8e 81 f6 bf 0b d0 58 42 db 5a 06 be
       -0.13319916 -1.9258287 54.203167 -0.13120596
0003b0 c5 75 cb bd 9e 1c c9 3c d3 eb 81 be 43 a1 ea bf
       -0.09934572 0.024549779 -0.25375232 -1.8330463
0003c0 ca c8 f7 bf d5 a3 17 3e 86 eb 1e 3e 19 1f 01 c0
       -1.9358151 0.1480859 0.15519533 -2.017523
0003d0 0b 72 67 be 2e 30 04 be ef b7 8e 42 72 c1 ee bf
       -0.22602098 -0.12909004 71.359245 -1.8652785
0003e0 74 a6 f4 bf 21 6b 09 be 80 d6 2e be c3 35 12 be
       -1.9113297 -0.13419773 -0.17074013 -0.14278321
0003f0 65 f0 01 c0 f1 42 cc bd 2a da f3 bf 92 07 7e bd
       -2.0302975 -0.099737056 -1.9050953 -0.06201894
